models/ngcf/eval_model.pt (torch, 528802 bytes, 13 tensors)

embedding.weight f4 [1656, 64]
00000000: 5146 1e3e 9ceb cbbd 1096 b8bd 7d94 5bbe
00000010: 394b 89bd a447 41be 37e1 1a3c 3677 13bf
00000020: a376 053e 18ae 8c3c c98d 8b3e 2c91 d9bc
00000030: 9ab7 b3bc 8d82 253d e021 38bd bbb8 8d3d
00000040: 4ba1 05be 7f79 a1be 497f 7c3e 803e b2be
00000050: 888b f7bd 112a 863e 1e4a 143d b024 fa3c
00000060: 42de 213e 8c38 31bd e9b0 7dbe 982d 283e
00000070: 0ad4 c73c 5624 353e 2de1 643e d665 943d
00000080: 6b8e 453e 097c da3c 2674 c0be 1cdb 00bf
00000090: 7a0a 2d3e f858 bc3e 504e 92be 488b c53d
000000a0: 528a de3d 281f 793e 77ce 0e3e 0d06 2abd
000000b0: 11c1 be3d 0e2a 7f3e 2303 30be 4db0 203e
000000c0: 30ed 35be f0d2 833e 9fab 85bb 43b1 313e
000000d0: 65a2 143e d229 51bd a8b3 eebc dd21 b4be
000000e0: 1b73 663e 9b19 12be 5943 a63d c2a6 2fbd
000000f0: f399 c13d 0e65 a43c 432d 75be 6256 49bd
00000100: 3206 93be d5e6 343c 7020 863c 7998 0ebd
00000110: 05c0 1e3e 41ee 463e 5c15 2ebf 6d15 783e
00000120: c12d 85bd dea2 693e 64f2 32be 7d77 af3e
00000130: ae18 1bbe d566 a23d 5a6c 393f 63fd a43e
00000140: 1c25 5cbd 4030 74bd bff4 46be fa37 d5bd
00000150: ed55 e63e 405f dd3b 3dbe 96be aca7 c2bd
00000160: 22d3 b7be cdbd e03d 8c85 25bd 8c13 aebd
00000170: c46c babe 38c1 7c3e 5ed6 d7bc cde0 8e3d
00000180: a858 febd dfe4 e23c 1b7d 08be c1bf db3e
00000190: ff23 b4be 9580 98be 4f1c c73e 6725 5e3d
000001a0: 5bf7 a3be 0e60 fe3e 4d59 65be b23e 6c3e
000001b0: 1898 523e de40 0bbd 20d5 b63e 4916 603d
000001c0: 9f27 70be ffbc 1f3c 00dd e2bc 9f84 763d
000001d0: fa83 b0bd 3c6d 84bd 2b68 083e 7cc3 1cbe
000001e0: b616 51be f623 4f3d 55c6 e0bb 1c7f 513e
000001f0: 9a2c 9d3d 4544 4ebd 85a4 b13c 7572 983e
00000200: 97b0 46be e58b 9a3e b96f 4dbe f0a8 babe
00000210: 7fea 503e ee39 b4be 28a3 5bbe c20c d43d
00000220: 05cb 823d 9a3d bb3d c842 aebe e3f4 953d
00000230: fbf4 313f 6eff 383e 06f2 9abd 67b6 e03e
00000240: ecd0 9f3c 4fd9 cc3e 750e f9bb 5028 873e
00000250: d596 54bd f1cf b2bd 447b 21be bd8c e73d
00000260: 7f5c 0c3e 6877 45be 4800 c9be ea0e de3e
00000270: 0afa 463d a2cd dbbe 764d d03c 7a0d cebe
00000280: ac46 eabe d297 913e 0a21 e6be e7ea 15bc
00000290: c699 913d 37b3 d5bd 6aef 8a3d f9fc aa3d
000002a0: 7431 e4bc e121 0fbd d34c b23e bd49 05bc
000002b0: b00d 32be 6ef4 8c3b 5f1c cc3b 84d6 9bbe
000002c0: b69c 0e3f c681 173c 16f5 f93d 7b57 02be
000002d0: aee7 f53e 1007 c3bd 2c97 193f c49f c83e
000002e0: 170c fb3c 32d5 8e3e 5d92 8fbd 443c 863d
000002f0: b770 123e f358 c9be c80a 183e 5243 f33e
00000300: 5d55 8bbe ee60 ce3d 06d4 96be 9bed 623d
00000310: 2e58 d43c ddd8 d13d 1a61 9cbe ad39 0bbe
00000320: ca49 1fbe 65c3 a83e 8c12 12be 33a0 56be
00000330: 803d 093e ec2e 9b3e 3989 843e 6601 f93a
00000340: d891 033f 8671 a13c fe27 a2bd 185e 49bd
00000350: e6f5 3d3e b19b fabd d543 9ebe 4f6f 28bd
00000360: 1b19 9fbc 2a97 36be 6471 273e 2d2b 83be
00000370: edb3 4d3e a241 6f3e d2af 173e 9074 57be
00000380: 21df 17bf 26eb 973d e8fd 5ebe e4ae ba3d
00000390: f772 c7bd cb1b 63be 72aa 343e a2f5 2fbf
000003a0: 20df 423e 3d14 4cbe 2083 1e3f cfd0 8fbe
000003b0: 1951 32be ea77 69be 905e 28be 290d d73d
000003c0: c1ce e7bd 83c0 963e 01bc ad3e 0890 c93e
000003d0: 8320 cb3d 4baf 723d 3cb6 d13e 259d 823c
000003e0: be12 5b3d d800 93be 84b8 7b3e 191f ddbc
000003f0: 15b3 303e 14fa 233e b709 8fbe 6976 99bd
0.15456511 -0.09957048 -0.09012997 -0.21443363 -0.06703801 -0.18874985 0.009453109 -0.57603776
0.13033538 0.017172858 0.2725661 -0.026558481 -0.021938134 0.040407706 -0.04495418 0.0692
-0.1304981 -0.31538007 0.2465793 -0.3481331 -0.1208716 0.2620397 0.036203496 0.030535072
0.15807441 -0.043266818 -0.24774517 0.16423643 0.0243931 0.17689642 0.22351523 0.07245986
0.1929261 0.026670473 -0.37588614 -0.50334334 0.16898528 0.36786628 -0.28575373 0.096457064
0.10866226 0.24328291 0.13945948 -0.041509677 0.09314168 0.24918386 -0.17188697 0.15692253
-0.17766261 0.2574687 -0.0040792967 0.17352776 0.14515074 -0.051065274 -0.029138401 -0.35182086
0.22504847 -0.1426758 0.08118314 -0.042883642 0.094531916 0.020067718 -0.23943047 -0.049154647
-0.28715664 0.011041363 0.01637289 -0.034813378 0.15502937 0.19426824 -0.6800134 0.24226923
-0.065028675 0.22816035 -0.17475277 0.3427085 -0.15146133 0.0792977 0.72430956 0.3222457
-0.053746328 -0.059616327 -0.194293 -0.10411067 0.4498743 0.0067557395 -0.29442015 -0.09504637
-0.3590327 0.109737016 -0.040410563 -0.08499822 -0.36411107 0.24683082 -0.026347335 0.06976471
-0.124192536 0.027697025 -0.13328974 0.42919734 -0.35183713 -0.297856 0.38888785 0.05423489
-0.32024655 0.4968266 -0.22397347 0.23070791 0.20565832 -0.03399741 0.35709476 0.054708753
-0.23452614 0.00974965 -0.027693272 0.06018507 -0.086189225 -0.06466147 0.13320987 -0.15308946
-0.2041882 0.050571404 -0.0068595805 0.20458645 0.07674523 -0.050358076 0.021684894 0.29774824
-0.19403301 0.30184856 -0.2006215 -0.36457014 0.20401953 -0.35200447 -0.21448958 0.10353996
0.06386379 0.09142609 -0.34035325 0.07322099 0.69514436 0.18066189 -0.075656936 0.43889162
0.019508801 0.40009543 -0.0076006004 0.26397943 -0.051901657 -0.08731068 -0.15769678 0.113061406
0.1370716 -0.19283831 -0.39258027 0.43370754 0.0485783 -0.42930323 0.025427561 -0.40244657
-0.45757043 0.28436142 -0.44947082 -0.009150243 0.07109408 -0.10434573 0.06783946 0.08349032
-0.027855612 -0.03494442 0.34824237 -0.008135256 -0.17388034 0.004301599 0.006228968 -0.304371
0.5570787 0.009247249 0.122049496 -0.12728684 0.4802832 -0.095228314 0.59996295 0.39184391
0.030645413 0.2789703 -0.070103385 0.065544635 0.1430081 -0.39325675 0.14847863 0.475123
-0.27213565 0.100770816 -0.29458636 0.05540238 0.025920954 0.102464415 -0.30542833 -0.1359622
-0.15555492 0.32961574 -0.14264888 -0.20959549 0.13402367 0.30309236 0.25885943 0.0018997609
0.51394415 0.019707453 -0.07917784 -0.049162 0.18550834 -0.12236727 -0.30911127 -0.041121777
-0.01942115 -0.17831102 0.16351849 -0.25618878 0.20088167 0.2336488 0.14813164 -0.21040559
-0.5932484 0.07417898 -0.21776545 0.09115389 -0.09738725 -0.22178571 0.17643145 -0.6873418
0.19030428 -0.19929595 0.6191883 -0.28088996 -0.17413749 -0.2279965 -0.16442323 0.10500557
-0.11318732 0.2944375 0.33932498 0.393677 0.099183105 0.059249204 0.40959346 0.015944073
0.05348467 -0.2871158 0.24582106 -0.026992368 0.17255814 0.16013366 -0.279371 -0.07493288

convs.0.lin_1.weight f4 [64, 64]
00000000: 954a 95be 5315 813e 911c 1bbc 83e1 2cbe
00000010: c7c3 76bc 85a1 f0bc f2f4 873d 6c1f 35bd
00000020: e42c 303d 55ad 8c3c d4aa 87bd 52f7 b7bd
00000030: 79c1 bfbc 6c2e 863d 98cf 543d 3777 523e
00000040: 416a 20be 3115 05bd 1101 d63d af09 1f3e
00000050: ee2d 783d 22ba 9e3d ae56 6b3e c103 933d
00000060: e449 cf3d f38a 0d3c 3fe7 aabd 6e80 1bbe
00000070: 3fa8 c3bc d09e cf3d 340e 63bd 8c1a 823d
00000080: b45e 74be 193c e23d 80d7 b2bd d29c 473e
00000090: 3855 df3d 07f5 28be 2592 f83d f392 4bbd
000000a0: 581a aebd f227 513e a102 9c3d c9f8 8bbe
000000b0: 2909 883e 28ee b63d 85c4 f33d ae2a 8d3d
000000c0: 60e1 bd3d 2050 49bd f030 8ebe e2aa 723e
000000d0: 8e4a 723b 148f ea3d 4737 433e 1705 253e
000000e0: c5ed 7f3c a071 5abd 5548 863e 16bd bdbd
000000f0: dca4 a93e 1e17 763b 11ec 893c eef2 c03e
00000100: d22b e63d cce8 0a3e fcaf a43e 3f42 69bd
00000110: 2525 35be 7b71 013e 87ba b5be 2d51 c1be
00000120: c2bd 983d 7b5c 653d 33d4 9c3d 3ec9 20be
00000130: cbfc f4bd 9bba 9cbd d52d c8be 8644 cd3d
00000140: 3c69 29be 6d14 9fbe 18f1 673e dcca 613e
00000150: a1a2 3a3e d05c ff3c 2e8b db3e 43af e73e
00000160: 1afa 843e 25fc 773d 26cf f13e f8e8 3fbe
00000170: 4c35 e9bd c058 17bf 3cfb 42bd c588 a3be
00000180: 3189 843e 9fd8 5abd 013f d6bd 6a57 8ebe
00000190: 323c 8a3e 8b59 823e 8d9d e8be 71ed 23be
000001a0: c8b4 74bc d6b8 a7be df89 9d3e 56b5 a1be
000001b0: 1198 cabc 8915 12be 1d75 28be 4909 d5bc
000001c0: a626 ac3e 8c47 a7be 692e 1d3e 89c8 c0bd
000001d0: c59c 353d 9ee0 97bd 6d20 a0be 29d3 1b3e
000001e0: e643 c33d b1bf 9e3a 23d2 a13e 6677 4fbd
000001f0: 30d2 9fbe 2e74 ccbe 9eab f5bd ad70 463d
00000200: 1e9f fcbd 7f5e 8f3d b763 ee3d e957 64be
00000210: 3a45 29be 892e 423e 8882 71bd 74c5 bc3e
00000220: c2fd ecbd 7a23 b0bd e2ec a23e 3ecf 36be
00000230: 79a3 2fbd 4a27 da3d b047 033e 1701 7ebd
00000240: 143a 6dbe b9c2 85bd 98af 683d 7de5 1fbe
00000250: 10e7 483d fa48 8b3e 9fc2 c6be 5186 563e
00000260: 454a 9cbe f5a5 1cbe 4175 513e 74e7 353e
00000270: 226e 77ba 9620 09be 3cd7 e5bd a407 58be
00000280: f36e 963e 0dcf 813e 0cff 4cbc ccbe 78be
00000290: 7c4d 94bd 7dfc 8abe d6e6 98be 7bb5 933d
000002a0: 8bca 7b3e 90ba 973e c515 83bd 30a2 8ebd
000002b0: 907f e33d ee1c 383d e143 8bbe 241d 583d
000002c0: 0e3c 053e c97d 68be 425c 023f 93fb 23be
000002d0: 62b1 003e 7ae6 45be e3ac b93c 1874 dc3d
000002e0: ae84 90be b65e 15be 9ceb 663e 036e f7bc
000002f0: a0d4 b03d 2bc6 f2bd 35bc 6fbe be9e 183f
00000300: c3f8 1ebe ea08 adbd 3569 953a 7834 2dbe
00000310: f56f 593e 588a 67be 11b0 563d 4d18 75bd
00000320: 212b fd3d 1887 73be deda cfbc 428d e2bd
00000330: 79a6 323d 3500 01be 7692 d63d 6e81 c93d
00000340: 7142 dabe b64e 6c3c 7c4a c8bc 8cfd 133c
00000350: 2dbb 54bd c8c6 00be 86cd 81be bced 773e
00000360: 908e 783e 7f56 a3bd 25ff 13be 5543 2c3e
00000370: d7a4 a5be 3247 9e3e d824 b93d 7284 28be
00000380: 297f a53d 5e6a 79bd 8125 c03e a24c bdbd
00000390: a74d 493c 57f8 1d3d 9049 ab3e 3d0d b83c
000003a0: b255 6dbe b4b8 e5be d090 523d b4af 0dbd
000003b0: 4563 b7bb d313 15be 8777 e1bd 1cc0 c33d
000003c0: 3109 963a 380e a4bd ceb9 c2bd 0fa1 923e
000003d0: 4015 123e fbce 2bbe 6ad6 1dbe 2865 c1bd
000003e0: fb5f 963e ce0b 99be 8a66 edbd dee3 4b3e
000003f0: 6496 1c3e d54a e73d c278 08be 1ad0 98bd
-0.29158464 0.25211582 -0.00946726 -0.16882901 -0.015061325 -0.029373894 0.066385165 -0.04421942
0.04301156 0.017172495 -0.0662438 -0.089827195 -0.023407685 0.06551823 0.05195579 0.2055329
-0.15665533 -0.032490913 0.10449422 0.15531038 0.060590677 0.07750346 0.22982284 0.071784504
0.101215154 0.008639085 -0.08344888 -0.15185711 -0.023883937 0.10137713 -0.055433467 0.0635272
-0.23864251 0.11046619 -0.087325096 0.19493416 0.10904926 -0.1649972 0.1213725 -0.04970069
-0.085011184 0.20425394 0.07617689 -0.27338246 0.2656949 0.089321434 0.119027175 0.06892906
0.092715025 -0.04914868 -0.2777171 0.23697999 0.0036970708 0.11453071 0.19064055 0.16115223
0.0156206535 -0.053331017 0.2622706 -0.09264581 0.3313359 0.00375504 0.016836198 0.3768534
0.11238827 0.13565367 0.32165515 -0.056947943 -0.17689951 0.12640946 -0.35493872 -0.37757245
0.074580684 0.0559964 0.07657661 -0.15701768 -0.11962279 -0.0765278 -0.39097467 0.100228354
-0.1654405 -0.3107027 0.22650564 0.22050041 0.182261 0.031172186 0.42879623 0.45250902
0.25972062 0.0605432 0.47228354 -0.18741214 -0.11387119 -0.59119797 -0.047602877 -0.31940284
0.2588592 -0.053429242 -0.10461236 -0.27801067 0.2699905 0.2545894 -0.45432702 -0.16008545
-0.01493568 -0.32758206 0.3076925 -0.3158366 -0.024730714 -0.14266028 -0.16450925 -0.026005404
0.33623236 -0.32671773 0.15349735 -0.09413249 0.04433896 -0.07415889 -0.3127474 0.1521727
0.09534435 0.0012111572 0.31605634 -0.050650977 -0.31215048 -0.39932388 -0.11995624 0.0484473
-0.12335037 0.070004456 0.11640113 -0.2229916 -0.16530314 0.18963064 -0.058962375 0.36869395
-0.11571838 -0.086005166 0.31821352 -0.17852494 -0.04288051 0.10652025 0.12820315 -0.062012758
-0.23166686 -0.06531281 0.056808084 -0.15614887 0.049048483 0.27204114 -0.3882036 0.20949675
-0.30525413 -0.15297683 0.20454885 0.17764074 -0.00094387133 -0.13391337 -0.11222693 -0.21096665
0.29381523 0.2535328 -0.01251198 -0.24291533 -0.072413415 -0.27145758 -0.29863614 0.07212349
0.24588983 0.29634523 -0.064006366 -0.069645286 0.11108315 0.044949464 -0.27200225 0.052762166
0.1301119 -0.22704233 0.50922024 -0.16013937 0.12567666 -0.19326201 0.022665447 0.107643306
-0.28226227 -0.1458691 0.22550815 -0.030203825 0.08634305 -0.11854204 -0.23411639 0.5961722
-0.15524583 -0.08448966 0.0011399152 -0.16914546 0.21234114 -0.22611368 0.052414004 -0.05983763
0.12361742 -0.23782003 -0.025372919 -0.11062099 0.043615792 -0.12597735 0.10477154 0.0983914
-0.42628816 0.014423063 -0.02444958 0.009032618 -0.051936317 -0.12575829 -0.25352114 0.24211782
0.24273133 -0.07975482 -0.14452799 0.1682256 -0.32352325 0.30913693 0.090402305 -0.16456774
0.080808945 -0.060892455 0.37528613 -0.09243132 0.01228658 0.038566913 0.3345456 0.02246725
-0.23177221 -0.4486748 0.051407635 -0.03459139 -0.0055965506 -0.14558344 -0.11009126 0.09558126
0.0011446831 -0.080105245 -0.09508096 0.28638503 0.14265919 -0.16778176 -0.15413824 -0.09443122
0.29370102 -0.2989182 -0.115918234 0.19911143 0.15291744 0.1129357 -0.13327315 -0.07461567

convs.0.lin_1.bias f4 [64]
00000000: c749 a53d cf2c b2be bfb5 20be e33b 413d
00000010: 034c 313d 06c4 553d 7eb7 1a3d 8870 983d
00000020: 829b 813c 5f7b 36bd dd7b 333d e97d d03d
00000030: 0e0a 09bf a775 023e 9b5e 39bd 077d 8ebe
00000040: 2f1b 073c ef67 a8bc df4a b3bd 9006 38bd
00000050: 18db d13d bb9e cc3d 7aed 033d 7bc5 b73d
00000060: ecbf c33d 8d51 07be 457e 6dbc 4a0b 073d
00000070: 9327 013d 6bec d23d 8327 873b d101 743d
00000080: 5bb9 83bc 3845 ac3d 08ec f93d c877 fe3d
00000090: 1769 883d 355c cd3d 4ac7 f13d ed47 ab3d
000000a0: a711 733c 8d05 b03d 967b b83d d5ca b23d
000000b0: b8d9 993d 1e0f 2abd 0680 a8be da39 ef3d
000000c0: 38a9 a63d d1b2 0e3e 9242 9c3d 6c50 163e
000000d0: 9cda c1bc 92b6 203d 8527 8f3d a6e7 113d
000000e0: 8652 a4bd aa53 b23d 1a23 a7be 87e4 86bd
000000f0: 1755 1d3c 64aa bcbe 250c c03c b50f bb3d
0.080707125 -0.3479981 -0.1569433 0.047176253 0.04328538 0.052188896 0.037772648 0.07443339
0.015821222 -0.04455125 0.043819297 0.101802655 -0.5353097 0.12740193 -0.04525624 -0.27829763
0.008246227 -0.020557372 -0.08754515 -0.044928133 0.10246867 0.09991213 0.032208897 0.08973213
0.095580906 -0.13214703 -0.014495437 0.03296975 0.03153188 0.102989994 0.004124583 0.059572045
-0.016079595 0.0841164 0.122032225 0.1242519 0.06660669 0.10027353 0.118055895 0.08363328
0.014835752 0.08594809 0.09007947 0.087300934 0.0751223 -0.041518323 -0.32910174 0.11680956
0.08137745 0.139354 0.07629885 0.14679116 -0.023663811 0.039236613 0.069899596 0.035621308
-0.080235526 0.08707364 -0.32643968 -0.06586557 0.0096028065 -0.36848748 0.023443291 0.09133855

convs.0.lin_2.weight f4 [64, 64]
00000000: 472d fabe 5894 2e3d fa54 a3be 33e0 8dbe
00000010: 43d7 03be a922 ecbe 3404 e23c 25c6 abbe
00000020: 1d71 1fbe 219a 103d 1117 1f3e 09fc fcbc
00000030: e8e3 a7be 8449 cabb 388c bfbe 8bab 60be
00000040: 50c6 e93d 8723 e3be dfe6 bfbe d929 6dbe
00000050: 3c1d c6be c61b 89be 038e dfbd 4222 243e
00000060: 1e68 cf3d a606 88be 24d5 e6be 398b 81bd
00000070: 43e3 7d3e 14b7 bbbd a994 063f 8585 733c
00000080: c98e ddbd 23dc 7dbe 8d51 24bf 89d7 68be
00000090: 0043 a9be f5a4 9ebd 887f 94be 0dde f8be
000000a0: cabf b9bd d427 3bbe bce8 14be a3d5 71be
000000b0: 9c2b 85be 62ec ebbe 262c 24be 887d 81be
000000c0: ebdf 493d 6e5b d5be 134a 113e c29c 61be
000000d0: bc34 22bc 4ca6 5cbe c31b 17bf bce3 29be
000000e0: 73de de3d 437d 8bbe 65b1 60bd 1091 09bf
000000f0: 14c8 ecbd e2d2 623e 8f40 ed3d bbc1 30be
00000100: 9442 cabe 358a 02bf 190e f8be 0752 fabe
00000110: f8a7 8bbe 5f5c fbbd 714f ecbd 4557 873d
00000120: 1030 5a3e 1b5a eebe 5a64 7c3e c1a1 14bf
00000130: 90eb 903d b647 fbbe 188f b1bd 6262 18bf
00000140: 2755 353d 2c7b 91be f6b9 6b3b 7979 64bd
00000150: 76ee 6abe f888 07bf 3d67 85be 618b eb3e
00000160: c4d8 233e f925 3cbd 8955 c3bd 0dee 933e
00000170: 318b a63d 1424 4a3e d881 9abe 72fd 803d
00000180: 044e 103f 7d0f 06bf bc53 83be c6a6 653e
00000190: e893 23be 8114 adbe b8c3 f3bc 724e 14be
000001a0: 17e3 5dbe 23c4 6ebe 18fd 8dbe c60a f8be
000001b0: 4f4a 1e3e 791c a8bd 0e92 053f 2ccd 14be
000001c0: 351b 04bf 873c da3e afdd 8ebe a1e3 c63d
000001d0: 303c f03e f3b2 6dbd fcf6 2ebe 5e72 16bf
000001e0: 6ba3 05be c95a 5bbd 9c2d 2ebf 9057 83be
000001f0: 44aa 86be 8ea1 8abe 5775 ff3d 47b5 d43d
00000200: e7ac 8ebc de50 ef3d f4fc 913d 814b 0e3e
00000210: 8274 1ebe 23d8 613d 2408 ac3d 855e b3be
00000220: 7fc7 933e 4849 253c d6ef 223e 4e41 803e
00000230: 584f 68bc bf2c f1bd 879c 0c3e bc35 eebe
00000240: 2abe 4c3d 8406 8f3e 522d 923e 3c56 d43e
00000250: 559c 4b3e bb10 3fbd 2f6d b73e ac0b c3bd
00000260: bd69 8f3d 998c b13d 74c5 9c3e ed95 89be
00000270: 12c4 0dbd 2501 143f 942b 5a3e abe6 dfbd
00000280: 47c2 50bc ab22 8fbe 0d1c 91be cbb4 513e
00000290: e993 023e e36d 143f d7f1 103f e5a9 38bd
000002a0: 407a a13e 34f3 243e 03a2 ac3d c336 7b3a
000002b0: b86b 00be 1657 87be b06c 8fbc 0168 c7be
000002c0: 1bc3 593e b02f 1b3c 4c24 c03e 33c0 c2be
000002d0: 8bee df3e 8a1b 8ebc 66cf 2d3e 8103 f4bd
000002e0: a177 973e 0dcc 313e b36b 673e 63a5 cd3e
000002f0: acbb 6f3e 4402 04bf 3070 f63e b8ec 103f
00000300: 07d7 413c 1e82 d6be e113 12bd d2ea e23d
00000310: 7113 84be a964 28bc f3be 79be fc88 113f
00000320: 6f85 afbe d9e0 3c3e 6ff7 8d3e 9ab0 0ebf
00000330: 9b62 7f3e 7b29 843e 77d9 a2bd 7934 03be
00000340: 56ef 373e 384e d6bd 5c49 27bf 9e81 22be
00000350: 727c 24be 6668 27bd 3677 783e b33f 363e
00000360: 6a60 a73d 1cd6 1b3c e061 b03e 65c2 a33e
00000370: 5d89 b93e 177e a63d 83ba 73bd ac47 943b
00000380: acd5 7f3e 915e 8cbe d856 0e3f 97a0 07be
00000390: ac23 05bf a798 533d 37ee 27bd 620f adbc
000003a0: 418b 87bb e771 3c3e 7d50 f83e 9180 6d3e
000003b0: d3a3 473e 340e a7be 86e2 033e 478e 2a3e
000003c0: 149f 6a3d dfbc bf3d f7c1 453d 72be 91bd
000003d0: 076f 79bd c375 43bd 11f4 5ebd 7608 97be
000003e0: 76be 05be e1c1 a6be 0f3b c0be 0be0 19be
000003f0: e1ea 26be 2814 45be 88fa 4b3e 1318 bdbd
-0.4886267 0.04262194 -0.3190077 -0.27710113 -0.12875085 -0.46120194 0.027589895 -0.3354961
-0.15570493 0.03530324 0.15536143 -0.030881898 -0.32791066 -0.0061733145 -0.37411666 -0.21940438
0.11414778 -0.44363043 -0.37480828 -0.23160495 -0.3869418 -0.26779002 -0.109157585 0.16028693
0.10127281 -0.26567572 -0.45084488 -0.06325383 0.24793725 -0.09165779 0.5257059 0.0148633765
-0.1081825 -0.24791007 -0.64186937 -0.2273847 -0.3305893 -0.07746307 -0.2900355 -0.4860691
-0.09069784 -0.18276912 -0.14541906 -0.23616652 -0.26009834 -0.46078783 -0.16032466 -0.25291085
0.04928581 -0.41671318 0.14188413 -0.22032455 -0.009900268 -0.21547812 -0.59026736 -0.1659078
0.108822726 -0.27244005 -0.054856677 -0.5373697 -0.115615994 0.22150758 0.11584579 -0.17261402
-0.3950392 -0.5099214 -0.48448256 -0.48890707 -0.27276587 -0.12273478 -0.1153859 0.06608442
0.21307397 -0.4655312 0.24647656 -0.58059317 0.0707618 -0.4907815 -0.08669871 -0.5952512
0.04427066 -0.28414285 0.0035968996 -0.055779908 -0.22942528 -0.5294337 -0.26055327 0.46004775
0.16000658 -0.04593465 -0.09537799 0.28892556 0.081320174 0.19740325 -0.30177188 0.06298341
0.5636904 -0.52367383 -0.25649822 0.224269 -0.1597439 -0.33804706 -0.029756412 -0.1448305
-0.21668659 -0.23317008 -0.27732158 -0.4844572 0.15458034 -0.08208556 0.52175987 -0.14531392
-0.51604015 0.42624304 -0.27903506 0.097113855 0.4692092 -0.058031987 -0.17086405 -0.5876826
-0.1305062 -0.053553376 -0.68038344 -0.25652742 -0.26301777 -0.2707638 0.12473553 0.103861384
-0.01741643 0.11685346 0.07128325 0.1389599 -0.15474132 0.055137765 0.0839999 -0.3503305
0.2886314 0.010088272 0.15911803 0.25049824 -0.014179073 -0.11776113 0.13731585 -0.4652537
0.049986042 0.2793466 0.28550202 0.41472042 0.19883855 -0.046646815 0.35825488 -0.095237106
0.0700259 0.08669395 0.30619395 -0.26872197 -0.034610815 0.57814246 0.21305686 -0.10932668
-0.012741632 -0.27956137 -0.28341714 0.20479123 0.12751736 0.57980174 0.5661902 -0.0450839
0.31538582 0.161084 0.08429339 0.000958305 -0.12541091 -0.2643363 -0.01750788 -0.38946536
0.21265833 0.009471819 0.37527692 -0.3803726 0.4373668 -0.017347116 0.16973647 -0.11914731
0.29583457 0.17362995 0.22599678 0.40165243 0.23411435 -0.5156596 0.48132467 0.56611204
0.011831052 -0.41896147 -0.03566349 0.11079945 -0.25796083 -0.0102779055 -0.24389248 0.56849647
-0.3428149 0.18445148 0.2772784 -0.5573822 0.24939959 0.25812897 -0.079516344 -0.12812985
0.17962393 -0.10464138 -0.6534631 -0.15869758 -0.16063097 -0.040871046 0.24264225 0.17797737
0.081726864 0.009511497 0.34449673 0.3198425 0.36237612 0.081295185 -0.059504043 0.0045251455
0.24983853 -0.27415898 0.55601263 -0.13244854 -0.52007556 0.051659252 -0.040998664 -0.0211255
-0.0041364734 0.18402825 0.48498908 0.23193575 0.19496088 -0.32628024 0.1287938 0.16655837
0.057280615 0.09362196 0.048280682 -0.07116403 -0.0608969 -0.04771973 -0.05443198 -0.29498643
-0.13060936 -0.32569793 -0.37545058 -0.15026872 -0.16300537 -0.1924597 0.19919789 -0.092331074

convs.0.lin_2.bias f4 [64]
00000000: 43a3 6e3d a962 e6be 8836 9fbd 48d5 efbd
00000010: 7617 833b d41f 223d 32d5 ff3d 4da1 323d
00000020: 19fe 8a3d e1dc 863d 5f1a bb3d 86f0 4abd
00000030: 4726 a9be 0959 a1bd 42b5 1fbe 7612 aabe
00000040: 2a42 ee3d 486d e03d a652 c83d eb00 963d
00000050: 8302 e2bc 983e 813d 2cd5 933d 352a f43b
00000060: bf09 673d abfa f8bc 757f f2bc 42c0 b33d
00000070: ff6b 96bd ff35 7e3d df2c 973d 2d62 643c
00000080: 850c 9b3d 7e31 e53d 2f36 80ba fc98 aabc
00000090: 691d 823d 7024 a73d 8bc1 bf3d 8127 973d
000000a0: ac15 ed3b 1b34 923d 1387 823d 6390 1d3d
000000b0: 133f b8bc e148 033e 749b 6cbe 0c5a bd3a
000000c0: 07e9 ae3d 28f1 723d d762 dd3c f868 a33d
000000d0: b3e8 883d 325f 053d 141a 4d3c f1f8 c83c
000000e0: bbf2 493a 4290 ab3c fa31 98be c2b5 cdbc
000000f0: 42e5 8f3d 52b0 03bf ef8a 813d fd37 953c
0.058261167 -0.44997147 -0.07774073 -0.11710602 0.0040005995 0.039581135 0.12491836 0.04361086
0.067867465 0.06585098 0.09135889 -0.049545787 -0.33037016 -0.0787831 -0.15596488 -0.3321721
0.116337135 0.10958344 0.09781389 0.07324394 -0.027589088 0.06310767 0.07218394 0.0074513205
0.05640578 -0.030392965 -0.029601792 0.08776905 -0.07344817 0.062063213 0.07381605 0.013939423
0.07570747 0.111910805 -0.0009781773 -0.020824902 0.06353266 0.08161247 0.09363087 0.07380582
0.0072352495 0.071388446 0.063734196 0.038467776 -0.022491014 0.1282077 -0.23106176 0.0014446392
0.0854054 0.059312016 0.02702467 0.079790056 0.06685009 0.03256149 0.012518425 0.024532767
0.0007703711 0.02094281 -0.2972563 -0.025111083 0.07026149 -0.5144092 0.063253276 0.018215174

convs.1.lin_1.weight f4 [64, 64]
00000000: c6ba 98be a30c cf3e c9d2 673e 92e8 8cbd
00000010: 2134 e6be 3abb b63b 8a32 3b3e 3b5a 10bf
00000020: 1c0e d6bb 925d 413e 2845 0abe 1813 99be
00000030: 35c4 d23e 1963 99bd 36db c43d 3596 1f3c
00000040: ac62 2bbc cf63 333e 96e1 b83d fa3b 8bbd
00000050: 6ec6 23be 4b2f bcbe 6294 58bd a028 c8be
00000060: 46bc d8be 0083 a73e d675 8cbc f909 983d
00000070: 163f e23e 6daf 83be ab61 6c3e 0e4a 41be
00000080: 0892 afbc dc1f 32be 0835 89be cd94 1abe
00000090: b7df 8bbe 4c00 573e eb95 38be 46af 003d
000000a0: 28bd a0bc 6477 b0be 8eb2 adbd 222d c6bd
000000b0: 669b 00bd e3d5 253e ddfd cf3e 9ceb 13be
000000c0: 0262 60be e700 4dbe 7b10 9ebd 8118 97bd
000000d0: affa 163d ed9d a2bd 8693 80bc 19f6 95bd
000000e0: 1d29 b13e 7a81 86be 39aa b03e 2826 523e
000000f0: 1f6b edbd 376d d33e f541 b1be e681 acbe
00000100: f2fe 92be e839 313e 12ac e43c 7ff4 1e3c
00000110: 7ba1 3fbd f0dd eebe 5160 523d 785b a6be
00000120: 80ad ae3d e1c8 8fbe ae84 25bd 1a3b 35be
00000130: d81a 243e ecc9 903e 5795 fabe 1d21 74be
00000140: a926 35bd 6883 933d 719b 83bd 675b 89bd
00000150: c69d 353e e32d 6d3c ca0d ab3d 2fa6 c9bc
00000160: 55f8 c4bd 3dff 0dbf 18ee 46bd a340 d0be
00000170: 6377 b3be d398 a03d 4ff9 383b fc5f 7f3e
00000180: 0ba8 173b 1e18 cebd 3fc9 e93d 7769 30bd
00000190: 677f e6bd bd90 f0bd f2e0 eabc 945d 863d
000001a0: 5edd 04be 6c5f 313e d9c4 653e 06b5 1f3e
000001b0: b161 033e 41d4 84bd 3740 98be 14a0 a8bd
000001c0: a95a 87be 5663 52be 7f70 323e 2e4a b4bd
000001d0: f73b 07be 116f fc3d 5fdb 633e 155b 973d
000001e0: 5730 6fbd 4cd3 43bc c74f a03e de38 23bc
000001f0: 062d 37be bea7 963e 0586 2dbd 7d57 9a3d
00000200: 977d a83d afad bebe 3300 4dbd c770 093e
00000210: 5cc2 1cbe 5b61 14bb d83d 95bd d4dc e1bc
00000220: 96ef c23d fdc3 123e 7c3b 193e a884 92bd
00000230: 18bb 2c3e fd70 17be 6229 2abf e1f6 dc3e
00000240: c010 61be ee2d d9bb e1be 1c3e 9715 183e
00000250: 26e7 3b3d f989 d3bc 606d 623d 652f c13d
00000260: fdca bbbd 10c4 03be 3d6c 463d a1d4 01bf
00000270: fc41 02bf ca99 0b3e 8368 66be ff38 f0bd
00000280: ad3a 2cbe e15b 7e3d f7ee 063e d455 113e
00000290: be36 083d eab2 103e f82f 1dbe 72e9 0dbd
000002a0: 920f 263e 8534 233e 5604 8cbd b83c 833c
000002b0: d2c5 25be ba1d 4b3e 59ac a13e e455 1e3d
000002c0: 5fa2 82bd 969c 42be 82e0 32be c843 fdbd
000002d0: 76b1 0bbe 05f9 68be 81ab 2ebe 04e5 b13d
000002e0: 84b7 10be 9dc1 7fbd fa43 c13d 0bfc 813d
000002f0: 0b39 02be adf1 e8be 4c10 9f3d 89fb d2bd
00000300: 9029 36bd b95d 2fbe c309 ccbe 4773 27bd
00000310: 25fe 033e 1fad 38be 3716 5fbb f05e e63d
00000320: 0b70 6a3e 6215 b03d ba4f 92bd f900 1abd
00000330: 6cc5 67be 12be 31be 8a0d 14be 6959 273e
00000340: 1001 9fbd 3858 98be b47c 3abd 44d7 073e
00000350: d179 0d3d b9c4 f9bc 7c11 cbbd 34a4 013e
00000360: f131 023e 8075 5abd a3b4 b1be 086c abbe
00000370: 4c3a f9bd c6d0 b4bd 7234 33be 572b 99bd
00000380: 8f68 0fbe 547c 6d3d cf11 cfbd 2c38 fbbd
00000390: 70eb 423d 3a98 4bbd 5274 6e3e ab68 d93d
000003a0: 044c 71be 9382 02be d09c 5dbd 06c3 84bd
000003b0: 6f39 0c3c 2c87 8dbe 1be8 82bb f7fc f73d
000003c0: 5285 37be 8f73 df3d 20c5 dd3d 83ff 32be
000003d0: 6ee2 f03c 54f5 7fbe 6c5d 1ebc cb65 1fbe
000003e0: 4381 e03d 8679 513e 74dd 01be 7486 0bbd
000003f0: 838b 84be 0172 8abe 8f03 123d d8ab 563e
-0.29829997 0.4043933 0.22639002 -0.06880297 -0.44961646 0.0055765184 0.18280998 -0.5638768
-0.0065324437 0.1888335 -0.13502944 -0.2989738 0.4116532 -0.074896045 0.09612124 0.009740402
-0.010460537 0.17518543 0.09027402 -0.06798549 -0.15993664 -0.36754832 -0.052875884 -0.39093494
-0.4233114 0.32717133 -0.017146032 0.07423777 0.44188756 -0.25719777 0.23084132 -0.18875906
-0.021431938 -0.17394966 -0.26798272 -0.15095825 -0.27319118 0.20996207 -0.18025939 0.031417154
-0.019621447 -0.34466088 -0.08481322 -0.09676577 -0.0313982 0.16194873 0.4062337 -0.14445347
-0.21912387 -0.20019875 -0.07717987 -0.073777206 0.036860164 -0.07940278 -0.015695345 -0.0732233
0.3460168 -0.26270658 0.3450487 0.20522368 -0.11592697 0.41294262 -0.34620634 -0.33692855
-0.28710133 0.17307246 0.02791408 0.009701847 -0.04678486 -0.466537 0.051361386 -0.3249166
0.08529186 -0.28082946 -0.040409736 -0.17698327 0.16025865 0.28279054 -0.48942062 -0.23840757
-0.044226322 0.07202798 -0.064261325 -0.06706887 0.17735967 0.014476272 0.083522394 -0.024615375
-0.09617678 -0.5546759 -0.048566908 -0.40674314 -0.35052022 0.07841649 0.0028224771 0.24938959
0.0023140933 -0.10063194 0.11415338 -0.04306933 -0.11254769 -0.11746357 -0.028671715 0.06560817
-0.1297507 0.17321557 0.22438373 0.15596399 0.12830235 -0.06485797 -0.29736492 -0.082336575
-0.26436356 -0.20545706 0.17425726 -0.08803211 -0.13206469 0.12325872 0.22251652 0.073904194
-0.05839571 -0.011952233 0.31310865 -0.009962289 -0.17888269 0.29424852 -0.04236414 0.07536218
0.08227079 -0.37241885 -0.050049018 0.13421927 -0.15308517 -0.0022641036 -0.072871864 -0.02757112
0.09518354 0.14332576 0.14964098 -0.071542084 0.16868246 -0.14789195 -0.66469395 0.43157104
-0.21979046 -0.0066277897 0.1530719 0.14851986 0.045874737 -0.025822626 0.05528009 0.09432868
-0.09169576 -0.1286776 0.048443068 -0.5071507 -0.50881934 0.13632885 -0.22500806 -0.11729621
-0.16819258 0.06209934 0.13177095 0.14192897 0.03325533 0.1413075 -0.1535033 -0.03464646
0.16216877 0.15938003 -0.068367645 0.016020164 -0.16188744 0.19835559 0.31576803 0.03865613
-0.06378626 -0.19005045 -0.17468455 -0.12366444 -0.13641915 -0.22751243 -0.17057611 0.086862594
-0.14132506 -0.062440503 0.094367936 0.063469015 -0.12717073 -0.45496884 0.0776678 -0.10301883
-0.04447323 -0.17125596 -0.39851198 -0.04088142 0.12889917 -0.1803479 -0.003404034 0.11248577
0.22894304 0.085978284 -0.07144113 -0.037598584 -0.22633904 -0.17357662 -0.1445829 0.16342701
-0.077638745 -0.29754806 -0.045529082 0.13265711 0.03454 -0.030489312 -0.09915444 0.12660295
0.12714364 -0.053334713 -0.34708127 -0.3348086 -0.12169322 -0.08828883 -0.17500475 -0.074789695
-0.1400473 0.057979897 -0.101108186 -0.12266573 0.047587812 -0.04970572 0.2328656 0.10615667
-0.23564154 -0.12745123 -0.054104626 -0.0648251 0.008558615 -0.2764219 -0.0039949543 0.12108796
-0.17921951 0.10910713 0.10828614 -0.17480282 0.029404845 -0.24995929 -0.009665828 -0.15566175
0.10962155 0.20456514 -0.12682134 -0.03406377 -0.2588769 -0.27040103 0.035647925 0.2096399

convs.1.lin_1.bias f4 [64]
00000000: 379e 74be 44e5 883c dabd 823b 0d94 7c3e
00000010: f06c d03c e243 c63d 72f0 b4bd ebde 01be
00000020: ac38 cb3d bdaf 55bc 80b2 883d 8cab 3fbe
00000030: ea39 1fbe 3fa3 3f3d 3c7b b33d 9e34 173e
00000040: 3656 adbe 1791 2d3e 9a8b d23d 0bd3 64bd
00000050: 894b 68be e610 b4be c48e d3bd e38f 333e
00000060: 752b b93c 3531 863e 1929 6fbd eaee 88bd
00000070: 9320 27be c576 78be 5065 19bd b634 61bc
00000080: 4825 a93d 801a 84bd 055e 0f3d d45f 323d
00000090: 6974 ee3d 2ed1 bd3b ad8b f8be e2b9 abbd
000000a0: 897b 113e ec25 95be c16a e7bd 5aa2 623d
000000b0: 8cec 98be 00c8 a1bc c0ce 0e3e d63e ccbe
000000c0: 8f29 573c 0cca 0cbe 6135 de3c 9689 1abd
000000d0: 5f02 e1be 49ae 0abe b433 893e 95db 8a3c
000000e0: 1ddd d0be 285f 1e3e 8659 3bba 8a09 cebd
000000f0: 1533 a3be 9f00 4f3d 3f95 943c 56c7 383e
-0.23888479 0.016710885 0.003989917 0.24665852 0.02544257 0.09680916 -0.08834924 -0.12682693
0.09922919 -0.013042388 0.06674671 -0.18717784 -0.15549436 0.046786543 0.087637395 0.14766166
-0.33854836 0.16949879 0.10280533 -0.05586533 -0.22685064 -0.35169142 -0.10329965 0.17535357
0.02260373 0.26209417 -0.058388803 -0.06686194 -0.1632102 -0.24264057 -0.037450135 -0.013745477
0.08259064 -0.06450367 0.035001773 0.04354842 0.11643297 0.0057927584 -0.48544064 -0.08385064
0.14207281 -0.29130495 -0.112996586 0.05533061 -0.2986797 -0.019748688 0.13946056 -0.3989169
0.013132467 -0.1374895 0.027125062 -0.03772887 -0.43947122 -0.13543047 0.2679726 0.016950408
-0.40793696 0.15465987 -0.0007146824 -0.10060413 -0.3187491 0.0505377 0.018137572 0.1804479

convs.1.lin_2.weight f4 [64, 64]
00000000: 1f24 c93d 8e62 5bbe 45ce bb3e a31a b53e
00000010: 2c47 533f 0992 003b ec7b 563e d516 193e
00000020: 1f76 643c 03a7 95bd 4884 c5bc acc3 4f3e
00000030: 8075 a6be 7d45 3f3e 52b5 94be f068 6bbd
00000040: 743d ee3e 2dbe 313f afaa 063d ff2a 15be
00000050: e50c d23e 5832 cc3d dbed bd3d 36df 193f
00000060: 8f65 04bd 5130 a63e 40cf 493c 9eeb eabd
00000070: dfe2 853e 5c9c 823d 467a da3d 59ac 85be
00000080: a254 c23e 0715 b93d 6549 1c3f 2fe6 043f
00000090: d08e 133e 3161 0d3f 941d 2b3e 3f45 be3d
000000a0: 8a4c 893e 5ce0 fa3d b2df 513e 4fe6 ee3e
000000b0: 9d0d 543e 8804 8fbd c549 ed3e cd62 2a3e
000000c0: 0d9c 5a3e bf41 943e 8a9d 5a3e 5aa6 72b9
000000d0: 01bd cc3d b5c0 1d3c a694 e63d ac7e 283d
000000e0: f3af 383d 7153 bf3e 639b f9bd 6099 ef3e
000000f0: 98af d3bd 1792 2fbd e95d 293d eac3 713e
00000100: d854 32be 68ed 03bf 1ece 74bd 9815 91be
00000110: d0ad 513d 7b50 3ebe 2385 ac3d 57a0 83bd
00000120: 0028 a33c d6d6 9dbe 9789 f8bc f4f1 c1bd
00000130: 7206 44be 2e2a fbbd 4a57 c7be 4600 463c
00000140: 5b3c 9ebd 0c0d d73e 67aa f9be 741b 38be
00000150: 44f9 f83d fed4 883d 8ceb 8a3d e52f 953e
00000160: aa95 013e 4c20 7c3d 3fd2 48bc e6a6 9fbe
00000170: 441e e6be 069d 45bc e21e 02bf c12c 0abd
00000180: 15dd f5bb 6f68 3ebe 8717 093d cab4 983d
00000190: 4cda 803d c378 d1bd 334c 8dbe c935 42bc
000001a0: 11c3 843e 1edd b93d 2e42 9ebd 8f3b 98be
000001b0: e41b 39be 4c30 d7bc 7dff 13bf 0c93 c2bd
000001c0: ea3c 053e bfc5 6abd 17ac 83be d709 d03d
000001d0: 1e4f 1b3e 040b 373d ef19 1c3d 8a24 813e
000001e0: 0fa8 663d 6709 9cbd 7565 2f3e f03e 923d
000001f0: 785a 62bd 80c2 133e c7c5 d53d 9e49 6d3d
00000200: 4ba1 5fbd 0a66 b8bd 2f30 463e a27e 78be
00000210: a865 8dbe 9e10 783d 8357 e63c 641d 853d
00000220: 220b 133a dade a03d e8df 55bd 44f3 b93c
00000230: c68b f2bc 87ef e8bd bcc0 2cbf 12bc 0dbe
00000240: c051 a3be 73a3 d53c a3cf 01bf cfe2 0e3e
00000250: 18a5 e0bc 116d 78be 52ce 453e 40ad 27be
00000260: 01f7 69bd 6ccd 76be 273f 6e3c b03a 26be
00000270: 6dd4 56be f14a b13d 08e9 193e 819e 75bb
00000280: adb3 583d b450 6b3b 53b7 1d3d 4148 4b3d
00000290: e4c7 a93d 2edd 3bbe 39d9 3fbe 87b4 babd
000002a0: 2dee dfbd 1d5f 93bd d34e f9bd daf2 a7be
000002b0: ee9c 86be 937e 19be a223 2a3d b6b9 35be
000002c0: 2c1a bfbd dd33 9d3d 1e7c 333e 9c25 4bbe
000002d0: f0c1 543d f837 51be 4d88 c63d 1678 8f3e
000002e0: b28f ac3d fb02 13be 74b4 d73e ac2c 2c3b
000002f0: 91df 743c ce63 4b3e cbce 02be 1602 a63d
00000300: 159b 46be 7a26 073f c1ec f8be 3d1b 04be
00000310: 379b 19bc 1010 84be 0868 84be 3f8f bbbe
00000320: 27b0 bbbd 91bd bcbd 79ef a6ba 4efd 87be
00000330: 860c fb3e b06a 0ebf fe48 f63c 61f4 573e
00000340: d87e 68bd e8a7 c2be 0542 243e 57bc 33be
00000350: 9447 6ebe 5133 30bd 3392 68be 6133 ecbd
00000360: 8995 7cbd c4b2 17be 9f24 10be 12e3 96be
00000370: 665f c3bd 3a58 cebd d7c4 9bbe cbc2 443e
00000380: 88e6 f43d 88cf a0be 9646 c1bd 0328 60be
00000390: 92ac 4fbe 1c04 b1bd e6b6 f6bd ff19 41be
000003a0: 3d86 91bd 91c5 93be 859b 9dbd e9d1 94be
000003b0: bf6e a53c de68 743d 626e 78be 978d d7be
000003c0: 36dc d9bd 8655 44be ec8f babe ed9a 7abe
000003d0: 9ec5 dbbe f97a adbe 6e84 29be 1378 29bd
000003e0: be4e 013d ceee 3abe c995 d63e bc20 cabe
000003f0: e6ec 88be 479d 22be 74a6 1dbe fd5c 8cbe
0.09821343 -0.21424314 0.3668081 0.35371885 0.82530475 0.0019618294 0.2094571 0.14950116
0.013944178 -0.073072456 -0.024110928 0.20289487 -0.3251152 0.18678851 -0.29044586 -0.057473123
0.4653126 0.6943081 0.03287762 -0.14567183 0.41025463 0.0997054 0.09273883 0.6010622
-0.032323416 0.32458737 0.012317479 -0.11470722 0.2614965 0.063774794 0.10667853 -0.26108053
0.37955195 0.09037214 0.6104949 0.5191373 0.14409947 0.5522643 0.16710502 0.092905514
0.26816207 0.122498244 0.20495489 0.46660087 0.20708318 -0.06983286 0.46345344 0.16639252
0.21348591 0.2895641 0.21349159 -0.00023140889 0.09996987 0.0096284645 0.11258821 0.04113643
0.045089673 0.37368348 -0.12187841 0.46796703 -0.10336226 -0.04286393 0.041349325 0.23609892
-0.17415178 -0.5153413 -0.05976688 -0.28336787 0.05119115 -0.18585388 0.08423831 -0.06427067
0.019916534 -0.3082797 -0.030339045 -0.09469977 -0.19143084 -0.122639045 -0.38933784 0.012085026
-0.07726356 0.4200214 -0.4876282 -0.17979223 0.12156919 0.0668125 0.06783208 0.29138103
0.12654749 0.06155424 -0.012257158 -0.3118202 -0.44944966 -0.012061363 -0.50828373 -0.033734087
-0.0075031617 -0.18594526 0.033469703 0.07456358 0.06291637 -0.102281116 -0.27597198 -0.011853644
0.25930074 0.09075378 -0.077274665 -0.2973294 -0.18077046 -0.026268147 -0.5781172 -0.09500703
0.13011518 -0.05731749 -0.25717232 0.10158127 0.151669 0.04468824 0.03811067 0.2522319
0.056312617 -0.07618981 0.17128547 0.071409106 -0.05526206 0.14429665 0.10438114 0.057931535
-0.05459718 -0.090038374 0.19354318 -0.24267057 -0.2761662 0.060562722 0.0281179 0.064997464
0.0005609264 0.078550056 -0.052215487 0.022699006 -0.029607665 -0.11373811 -0.6748159 -0.13841274
-0.31898308 0.026078915 -0.50707453 0.13953708 -0.027422473 -0.24260356 0.19316986 -0.16374683
-0.057120327 -0.241018 0.014541424 -0.16233325 -0.20979472 0.08656872 0.150303 -0.003747851
0.052905727 0.0035906257 0.03850491 0.049629454 0.08290079 -0.18346092 -0.18735208 -0.09116464
-0.109341 -0.07195876 -0.12173238 -0.3280247 -0.26291603 -0.1498969 0.04153789 -0.17746624
-0.09331164 0.07675908 0.17527816 -0.19838566 0.051942766 -0.20431507 0.09693966 0.28021306
0.08425845 -0.14356606 0.42129862 0.0026271744 0.0149458805 0.19862291 -0.12774198 0.081058666
-0.19395097 0.52793086 -0.4861813 -0.12901016 -0.009375385 -0.25793505 -0.2586062 -0.36632726
-0.09164458 -0.092158444 -0.0012736163 -0.26560444 0.49032992 -0.5563154 0.030064102 0.21089317
-0.056761593 -0.38018727 0.1604081 -0.17552315 -0.23269492 -0.04301769 -0.2271202 -0.11533237
-0.061666045 -0.14814287 -0.1407647 -0.29470116 -0.0953968 -0.10075422 -0.30423614 0.19214933
0.11958033 -0.31408334 -0.09437291 -0.21890263 -0.20280674 -0.08643362 -0.12046604 -0.18857573
-0.07105682 -0.2886167 -0.076956786 -0.290664 0.02019441 0.05967032 -0.24260858 -0.42100212
-0.10637705 -0.1917325 -0.3643793 -0.24473162 -0.42924207 -0.33882883 -0.16554424 -0.041374277
0.031569235 -0.1825516 0.41911152 -0.394781 -0.2674324 -0.15880309 -0.15395528 -0.27414694

convs.1.lin_2.bias f4 [64]
00000000: 207c 0bbf 50ca 14be 72ae 98bc 58a2 843e
00000010: acaf 17be eb62 9b3d 1f3c 00be e29f e4bd
00000020: 932b 4ebd 0974 e13c 6d7d 443d 6ebc 40be
00000030: 205f 99bd c1a3 563d 557c febd a52f 3f3e
00000040: 9193 8bbe 5cf7 8139 b09e 47bb 405b aabd
00000050: 078b e1bd 3b5d d8be dc46 87be 89dd 723e
00000060: 495b 08be 314a 873e 3076 a83d 5388 633b
00000070: 9edc 4b3d 36b6 83be 6639 da3c b0be 693b
00000080: 2e22 42bd 6d3b 04bb 0ff3 1f3e 22e2 003e
00000090: c32b cf3d f860 243d 6570 c2be ff1f 11bb
000000a0: c3c5 df3d 1140 f3be dfd4 573d 2a81 e2bd
000000b0: 8c9e f2be 0e68 3d3a a1b0 c1bc 8d13 b3be
000000c0: 457d 3abe 7e14 67be e4fb 1ebd 1541 30bd
000000d0: 0890 f8be 5802 9ebd 0c02 193e 5842 46bb
000000e0: 0e79 adbe 92ae 5c3e b0bf d4bd 036d 4abe
000000f0: ca71 03bf 8643 78be 346e 07be 6278 043e
-0.54486275 -0.14530301 -0.01863787 0.25905108 -0.14813107 0.075872265 -0.12522934 -0.11163308
-0.050334524 0.02752115 0.047971178 -0.1882188 -0.07488847 0.05240226 -0.12426058 0.18670519
-0.27261022 0.00024789094 -0.0030459575 -0.08318186 -0.110128455 -0.4225863 -0.2642125 0.23717321
-0.13316073 0.2642379 0.082256675 0.0034718707 0.049770944 -0.25724953 0.026638698 0.0035666637
-0.047395878 -0.0020177022 0.15620063 0.12586263 0.10115769 0.04013154 -0.37976375 -0.0022144315
0.10926392 -0.47509816 0.052693244 -0.11059792 -0.47386587 0.0007225283 -0.023643794 -0.34975854
-0.18211849 -0.22566411 -0.03881444 -0.043030817 -0.48547387 -0.07715291 0.14942187 -0.0030251946
-0.3388142 0.21550968 -0.10388124 -0.19768147 -0.51345503 -0.24244508 -0.13225633 0.12936547

convs.2.lin_1.weight f4 [64, 64]
00000000: 505d 2e3c be91 32be 9840 f83c 426a 8abe
00000010: ba19 71be 4e34 8bbd a068 193d 5fc9 2bbe
00000020: f85b 27be d025 53be f2a8 29be d5ec 963d
00000030: 3f21 473d 3907 853d d8b8 303e 67d7 d93d
00000040: d681 a33d efe5 0a3e 0e79 48be ad87 343e
00000050: 03fa 57bd 8ed7 9e3d c02b e1bc 7061 543d
00000060: 9261 033d 19d7 b63c ba8c 463e fa4f 253e
00000070: 9452 aebd 9fbf 1a3e ba19 83be 0948 b83d
00000080: 98a8 f13d 402e b3bd 5439 933d 8424 4fbd
00000090: 59e5 133e 4e24 67be 343d 293e 69c3 14be
000000a0: 951c 49bd 2cad 1fbe aa36 183e 1d29 113d
000000b0: 30aa 663d cd4d 2fbe 79fa bbbe 8b1b 973e
000000c0: 7d4b f7bc 5b8b a7bc 797f 80be f2db c73c
000000d0: c461 aebc f045 5e3d 6dc7 38be 80b0 26be
000000e0: 6d87 033e 53f7 893d 69ae aebe 79c7 153c
000000f0: f541 36bd c56f 9d3d b25e d53d abcb 7c3d
00000100: f87c ca3d 5ea9 f6bd f5ca 003e 5d2d 0c3d
00000110: 358e 34be e245 98be e22a b9bc 781e 053e
00000120: d923 91be 2516 36be 7fba 2ebd 979c 14be
00000130: 1506 45bc e32c 903e b232 de3e ec2c 23bd
00000140: de5f 2f3e dfa1 cebd 4025 c83d 73ab 583e
00000150: 71df 0f3e e900 ce3d 4316 3d3d d55f 173e
00000160: 5717 c9be 3f09 28be c23a 963e 5586 5abe
00000170: f7da 1c3e 70a5 8d3d 9ccf 6fbe 8256 e83d
00000180: 8199 68be 96ac 05be 2afc 63be b6f6 683e
00000190: ec5b 00be 366b 07be 647f bf3b 29f2 ef3d
000001a0: 186c 153e d452 d03e c958 0d3e f83d ef3d
000001b0: 6eba 893e 64a2 91be a499 91be 826a 8f3e
000001c0: 9fbc 8a3c d5aa 8d3d 31ff 77be df06 e13c
000001d0: 601d 0b3e f677 7c3e 1df5 54bc 1e3f 8abe
000001e0: f86d adbe 864f 90be ae0e c3be 6fb7 ac3e
000001f0: 0712 d23d ee07 2b3d f831 5e3b acde 41be
00000200: 436d 173d 8d12 bcbe 2901 28be 81b4 83be
00000210: 959b e53d c071 593d 721a 03bd af08 0cbe
00000220: c87b f8bd 099a ef3d d25c 3abe 898e d8bd
00000230: b2a6 71bd 46cb 9bbd 8cd9 893e b1c8 ab3d
00000240: 4af2 48bd bf25 873d 7f5c 3f3d 969b 123e
00000250: 7e11 993c e3ba 7b3d af4b 00be 0f05 c13d
00000260: d117 1a3c cc59 7abe 8673 7b3e fa93 203e
00000270: 986d 643d 1c7d 7c3e bf24 323d c7d8 563e
00000280: ad3c efbc 55ba 2c3e a68c 98bd 10af aabc
00000290: a6d6 1c3e c276 4bbe 9095 213d 0526 84be
000002a0: 74ce ad3d 1bb9 273d 3890 40be 2c45 6abe
000002b0: 7c21 29bd f8d6 69be c199 68be 249f 783d
000002c0: 3be6 23be 164f dcbd 4f31 7dbd f508 23bb
000002d0: 8b5a 373d 4c11 99be f897 11be 0428 b9bd
000002e0: 261f c53c c5b1 fe3d 6ddb f1bd e6fa 6a3e
000002f0: 2b4c 6fbd b9dc 2d3e 0b30 57be 56bb 92be
00000300: 2e50 993d 4a91 603d 6ee6 c43d 6ce2 c13d
00000310: f465 d53c 6c59 0f3e fa0a a4bd 66a8 77be
00000320: 5449 21be 479e 8bbd 9c1e 1b3d 84e5 e9be
00000330: 28ed 44be 394c 923e eb48 9e3e 15a7 343e
00000340: e648 18be ae06 97bd 79fb 1bbe 6a92 d5be
00000350: 61cf 173e c407 31be 4f6e fabe 68ca 2ebe
00000360: c6b4 2fbe b66e 0c3b 1d31 5d3e e819 b1be
00000370: fbca dd3d a1b7 1f3d e566 89bd 8a7a 08be
00000380: 3db5 03bf fb98 4ebd b794 f5bd 267f ec3d
00000390: 39b2 843e 9e58 b8bd 469a aabc 49fb 88bc
000003a0: 0fba 94bc 37e9 97be 2273 a3bd 31fa 7e3d
000003b0: 4775 c4bc 87cd d53d 8b8e 9fbe 64a9 be3d
000003c0: 267a 1ebd 6757 e93d 4cb5 5a3e 0e8a 38be
000003d0: f157 3cbe 3f81 c8be ed30 5a3d d8ff 133e
000003e0: f1c9 eebd 2ede 20be 2202 7cbe e0af 473e
000003f0: 3da4 8c3d 7d19 a6bd 4f2e 59be 55e7 a6bc
0.010642365 -0.17438409 0.030304238 -0.27034193 -0.2354497 -0.06797086 0.037453294 -0.16776036
-0.16343677 -0.20619893 -0.16568354 0.07369391 0.04861569 0.06495518 0.17258012 0.10636788
0.079837486 0.13564275 -0.19577429 0.17629881 -0.052728664 0.077559575 -0.027486682 0.051850736
0.032075472 0.022319363 0.1938962 0.1614379 -0.08511844 0.1511216 -0.25605565 0.089981146
0.11799735 -0.08749056 0.07188669 -0.050571933 0.14442958 -0.22572443 0.16527253 -0.14527668
-0.049099524 -0.15593404 0.14864603 0.0354396 0.056314647 -0.17119522 -0.36714533 0.295132
-0.030187363 -0.020452192 -0.25097254 0.02439687 -0.021286853 0.054265916 -0.18044825 -0.16278267
0.1284463 0.067366265 -0.3411744 0.009141796 -0.044496495 0.07687334 0.10418452 0.06171767
0.09887117 -0.12044023 0.12577422 0.03422295 -0.17632373 -0.29740816 -0.022603456 0.12999904
-0.28347662 -0.17781885 -0.042658325 -0.1451286 -0.012025376 0.28159246 0.43398052 -0.039837763
0.17126414 -0.10089468 0.0977273 0.21159153 0.1405008 0.10058767 0.04616381 0.14782651
-0.3927562 -0.16409777 0.29341704 -0.21340306 0.15317903 0.0691632 -0.2341904 0.11344625
-0.22714807 -0.13054118 -0.22264162 0.22750363 -0.12535065 -0.13224491 0.0058440436 0.1171611
0.14592016 0.40688193 0.138034 0.116817415 0.26900047 -0.28444207 -0.2843753 0.28010947
0.016935645 0.06917349 -0.24218442 0.027469097 0.13585424 0.24655136 -0.012997893 -0.2700128
-0.33872962 -0.28185672 -0.38097137 0.337337 0.10257345 0.04175561 0.0033904295 -0.18932599
0.036969434 -0.36732903 -0.16406693 -0.2572365 0.112113155 0.053086996 -0.032007642 -0.13675188
-0.121329844 0.11699302 -0.1819947 -0.105740614 -0.058996864 -0.07607131 0.26923788 0.08387888
-0.04905919 0.06598996 0.04671907 0.14317164 0.018685099 0.061457526 -0.12528871 0.09424793
0.009405092 -0.24448317 0.24555787 0.15681449 0.05576858 0.246571 0.043492075 0.20981131
-0.029203737 0.16867955 -0.074487016 -0.02083543 0.15316257 -0.19869521 0.039449275 -0.25810257
0.084866434 0.040948015 -0.18805015 -0.2287795 -0.0412917 -0.2283591 -0.22714902 0.060698643
-0.16005795 -0.10757272 -0.061814602 -0.0024877165 0.044764083 -0.2989601 -0.14218128 -0.090408355
0.024062704 0.124362506 -0.1180943 0.22947273 -0.05842225 0.1697873 -0.2101442 -0.2865855
0.07485996 0.05482606 0.096142635 0.09467015 0.026049592 0.13998955 -0.08009906 -0.24185333
-0.15750629 -0.068172984 0.03787099 -0.4568292 -0.19231093 0.28573778 0.30915007 0.17641862
-0.14871559 -0.07374321 -0.15232648 -0.41713268 0.14825203 -0.17288119 -0.48912284 -0.170694
-0.17158803 0.0021428294 0.21600766 -0.34590077 0.10829731 0.03899348 -0.06709079 -0.13327995
-0.5144842 -0.050438862 -0.11991256 0.11547689 0.25917223 -0.090012774 -0.020825516 -0.016721385
-0.018155126 -0.29670116 -0.07980944 0.06225032 -0.023981703 0.10439592 -0.3116344 0.093096524
-0.03869071 0.11393624 0.21358222 -0.18021414 -0.18392922 -0.39161107 0.053269316 0.14453065
-0.11659611 -0.15709755 -0.24610189 0.19500685 0.068672635 -0.0811033 -0.21209072 -0.02037398

convs.2.lin_1.bias f4 [64]
00000000: 1c46 aebd d547 a1be b3ec 52be f513 fd3d
00000010: 120b 163d 051b f0bd 8e5c 17be 0a73 2bbe
00000020: f059 cf3d 4d67 47be e56c 0d3e 313d 1a3c
00000030: 3bcf 94bf f419 c5bd 8047 b13d c02a ecbd
00000040: bb58 eb3c acd2 73be e835 aebe 99ef e53d
00000050: da17 a8bc 7928 f83d e025 3c3d 8fab 1dbe
00000060: f298 94bd 8ff6 293e 96bd 63be 41ba 333e
00000070: 0624 b73d 534d 363e 4e40 47bd c677 20be
00000080: 4653 23be 8626 da3d 71ba 1abe e5b3 d03c
00000090: 009d f0bd 5e79 a23d bfd1 d4be f5b3 18be
000000a0: 6864 3f3d 072c 683d f454 a0be 2ffe abbc
000000b0: 5042 d93d 10d9 b8bd d8c0 593d 02e1 92be
000000c0: 3473 d6be 9da6 4b3e a45d 85bc 35ba 9f3d
000000d0: eab7 a8be b2c2 163e 751d de3d 65cd b33d
000000e0: 446a 1f3e fe66 13be 81f0 74be 6c23 013e
000000f0: 31e5 b9bd 75d5 bc3c 6ead 1ebe b386 06be
-0.08509466 -0.31500116 -0.20598106 0.12357322 0.03663165 -0.117239036 -0.147814 -0.16743103
0.10124576 -0.19473 0.13811071 0.009414003 -1.1625742 -0.09624091 0.08656216 -0.115315914
0.028728833 -0.23810834 -0.34025502 0.1122734 -0.020519186 0.121170945 0.045934558 -0.15397476
-0.072557345 0.16597961 -0.2224029 0.17551519 0.08942418 0.17802934 -0.04864531 -0.1567069
-0.15949735 0.10651879 -0.15110184 0.025476405 -0.117486954 0.07933305 -0.41566274 -0.14912398
0.046726614 0.056682613 -0.31314814 -0.020995228 0.10608351 -0.090257764 0.053162426 -0.28687292
-0.41884768 0.19887777 -0.016280003 0.07799188 -0.32952815 0.14722708 0.10845462 0.0877941
0.15567881 -0.14394757 -0.2391987 0.12611169 -0.09076918 0.023051003 -0.15495846 -0.13137321
