models/lightgcn/eval_model.pt (torch, 425451 bytes, 1 tensors)

embedding.weight f4 [1656, 64]
0	0x3e9c5133	0.305307
1	0xbd7d8789	-0.061896835
2	0x3e00e04c	0.12585562
3	0x3d359d7b	0.04433964
4	0xbea149fe	-0.31501764
5	0x3f81a784	1.0129247
6	0xbe3eba67	-0.18625794
7	0xbf3b65ef	-0.73202413
8	0x3f2e2c7b	0.6803662
9	0x3eda23de	0.4260549
10	0x3f0f2fe0	0.55932426
11	0x3f1eda2c	0.62051654
12	0x3e9b9e4c	0.30394208
13	0xbe8dcb3c	-0.27694118
14	0xbebc641c	-0.36795127
15	0xbf3e5ca5	-0.74360114
16	0xbfece0a5	-1.8506056
17	0xbed25bfd	-0.41085806
18	0x3ea5e6cf	0.32402655
19	0xbee145ab	-0.43998465
20	0xbe3a4ed5	-0.18194135
21	0xbf25812b	-0.6465022
22	0xbe39b474	-0.18135244
23	0x3efa64ac	0.48904932
24	0x3f469ccf	0.7758302
25	0x3e3dd2f8	0.1853751
26	0x3f1ae52b	0.6050593
27	0x3f3f0b33	0.74626464
28	0x3f918096	1.1367366
29	0x3ecc8d57	0.39951584
30	0xbddd38c4	-0.10801843
31	0x3f09aa68	0.53775644
32	0xbf37ab5a	-0.71745837
33	0x3f6bd763	0.9212553
34	0xbf2afb2a	-0.66789496
35	0x3e84de51	0.25950864
36	0x3f38c72b	0.72178906
37	0xbf06002c	-0.5234401
38	0xbe0dc1f7	-0.13843523
39	0x3f507ec1	0.8144341
40	0xbfc85d59	-1.5653487
41	0xbe1b5a98	-0.15171278
42	0xbddda630	-0.108227134
43	0xbf811c9e	-1.0086858
44	0x3e0dbd21	0.13841678
45	0xbf5ac749	-0.85460335
46	0xbd3e66fe	-0.04648494
47	0x3de12bbb	0.10994669
48	0xbee0185b	-0.43768582
49	0xbf3cb60f	-0.737153
50	0xbf69fd43	-0.9140207
51	0x3db9ac28	0.09066039
52	0x3f0172aa	0.5056559
53	0xbe41d909	-0.18930449
54	0xbe312b6f	-0.17301725
55	0xbf9002b6	-1.1250827
56	0xbf4f6199	-0.810083
57	0xbe126fdc	-0.14300483
58	0x3d122885	0.035683174
59	0xbafd9396	-0.0019346352
60	0x3dc495bf	0.09598874
61	0x3f8999a7	1.0750016
62	0x3f91d21f	1.1392249
63	0x3ed26af7	0.41097233
64	0x3dd64e92	0.10464205
65	0x3ea5baed	0.32369176
66	0x3e2ff323	0.17182593
67	0x3f5d736c	0.86504245
68	0xbf568efc	-0.83811927
69	0x3fecfa05	1.85138
70	0xbed8ef13	-0.423699
71	0x4000bbc2	2.0114598
72	0x3e5211da	0.20514622
73	0xbf33ff0d	-0.7031105
74	0x3f77154b	0.96516865
75	0xbf6c25da	-0.92245257
76	0xbf62ddb4	-0.8861954
77	0xbeae6720	-0.34063053
78	0x3f96cfae	1.1782129
79	0x3f31aafe	0.6940154
80	0xbe80d80c	-0.2516483
81	0x3e61a64d	0.22036095
82	0xbe9c87ef	-0.3057246
83	0x3f348827	0.7052025
84	0xbe779232	-0.24176863
85	0x3fdd04f4	1.7267137
86	0xbf962d3e	-1.1732557
87	0x3e935d66	0.28782195
88	0x3e6c7851	0.23092772
89	0x3f326e79	0.6969982
90	0xbfdf5163	-1.7446712
91	0xbebc54b8	-0.36783385
92	0xbf705b7d	-0.938896
93	0x3f823f59	1.0175582
94	0xbe358eb1	-0.17730214
95	0x3f7b4e1f	0.9816608
96	0xbfc91581	-1.5709687
97	0xbf3bcd5e	-0.7336024
98	0x3f80af01	1.0053407
99	0xbea5b6aa	-0.32365924
100	0x3f68242c	0.90680194
101	0xbe762cd8	-0.24040544
102	0xbf67d1a3	-0.90554255
103	0x3ffd1c35	1.9774233
104	0x3f585799	0.84508663
105	0xbfdc428c	-1.7207808
106	0xbce902f3	-0.02844379
107	0xbda8f2f5	-0.082494654
108	0xc00d404a	-2.207049
109	0xbe64ab56	-0.22330984
110	0x3fbe3d26	1.4862411
111	0x3ebcadf0	0.36851454
112	0xbf51b313	-0.8191387
113	0x3f080836	0.5313753
114	0x3ec2498e	0.37946743
115	0x3f5e8244	0.8691752
116	0xbec1ef8c	-0.37878072
117	0xbfb28db1	-1.3949491
118	0x3f88a727	1.0676011
119	0xbea5576f	-0.3229327
120	0x3e1df224	0.154244
121	0xbf6256bb	-0.8841359
122	0x3d97df26	0.07415609
123	0xbebed5fa	-0.37272626
124	0xbfe26c60	-1.7689323
125	0x3c9fbf6f	0.019500462
126	0x3f34ba6a	0.70596945
127	0xbf9db9b0	-1.2322292
128	0xbdf19542	-0.11796047
129	0x400916c9	2.1420157
130	0xbe27c547	-0.16383849
131	0x3f35cc43	0.71014804
132	0xbeb24fec	-0.348266
133	0xbf5e5845	-0.8685344
134	0x3ffdad58	1.9818525
135	0xbfb99a75	-1.4500262
136	0x3eef88e4	0.46784127
137	0xbd924358	-0.07141751
138	0xbf1b5982	-0.60683453
139	0xbf5d6a0c	-0.8648994
140	0xbf9d4902	-1.2287905
141	0xbf9cb825	-1.2243696
142	0x3f003637	0.50082725
143	0xbeb503a1	-0.3535433
144	0x3f085897	0.5326018
145	0x3dc0c209	0.09412009
146	0xbf8a5807	-1.0808114
147	0x3f157e9e	0.5839633
148	0xbe51cc32	-0.2048805
149	0xbdb06889	-0.086136885
150	0xbf2888e4	-0.6583388
151	0x3f3820cf	0.7192506
152	0xbf821d17	-1.0165128
153	0xbf8b65a0	-1.0890388
154	0xbf982acf	-1.1888064
155	0xbfe75e40	-1.8075638
156	0xc006a62b	-2.103892
157	0x3d08ea21	0.033426408
158	0xbf66fb74	-0.90227437
159	0x3f4e6903	0.80628985
160	0x3f9aef99	1.2104369
161	0xbdacd6f6	-0.08439438
162	0x3dafd6e7	0.08585911
163	0xbd4465f9	-0.04794881
164	0xbf5b0be3	-0.8556501
165	0x3f44ee6e	0.76926315
166	0x3fbec3b1	1.490347
167	0xbf22ddc0	-0.63619614
168	0xbe56d45d	-0.20979448
169	0xbef0e48d	-0.4704937
170	0xbf7f4d97	-0.9972777
171	0xbf951be6	-1.1649139
172	0x3e05dc58	0.13072336
173	0x3e5e1b5c	0.21690124
174	0x3f351416	0.70733774
175	0xbeb26a89	-0.34846905
176	0x3fefcec2	1.8734972
177	0xbc2c86dc	-0.0105302
178	0xbf3dfd9f	-0.7421512
179	0xbf520deb	-0.8205249
180	0xbea05bb6	-0.3131997
181	0xbfed3b7b	-1.8533777
182	0x3c2afa8d	0.0104357125
183	0xbfa96fb9	-1.323722
184	0x3f22619d	0.63430196
185	0xbf6d7897	-0.9276213
186	0xbeb65ce5	-0.35617748
187	0xbf37b1bd	-0.7175558
188	0x4006c81a	2.1059632
189	0x4014c0ca	2.324267
190	0xbf2b5963	-0.6693327
191	0xbf464a64	-0.7745726
192	0x3f2ba72b	0.67051953
193	0x3e1b5452	0.15168884
194	0x3efee18c	0.49781454
195	0x3f774127	0.9658379
196	0xbf457c4f	-0.77142805
197	0xbf9e97bd	-1.2390057
198	0xbf5ee66b	-0.8707034
199	0x3e4b2e74	0.19841939
200	0x3fc27000	1.519043
201	0x3e0d113c	0.13776106
202	0xbf827e4f	-1.0194796
203	0xbee0fde8	-0.43943715
204	0xbf716b54	-0.94304395
205	0xbf82390b	-1.0173658
206	0xbe38fd46	-0.18065366
207	0x3c91ac17	0.017782254
208	0xbf0d95d0	-0.5530672
209	0xbe5281b0	-0.20557284
210	0xbe1192cf	-0.1421616
211	0x3fa55766	1.2917297
212	0xbeeda53a	-0.4641512
213	0xbe482642	-0.19545844
214	0x3e9aaed4	0.30211508
215	0x3f710925	0.9415458
216	0x3e23834f	0.15968059
217	0xc007cb97	-2.1218011
218	0xbf41aa16	-0.75650156
219	0xbfe27a80	-1.7693634
220	0xbffd4776	-1.9787433
221	0xbf562e27	-0.8366417
222	0xc020b848	-2.5112476
223	0x3fc70ff8	1.5551748
224	0xc00f4144	-2.2383585
225	0xbe494eb5	-0.1965893
226	0x3e56afcb	0.20965497
227	0xbefc7749	-0.49309757
228	0x3d340ee1	0.043959502
229	0x3ea0b706	0.31389636
230	0x3f8e9d19	1.1141692
231	0xbe11c027	-0.14233457
232	0x3e280a91	0.16410281
233	0x3e9422c2	0.28932768
234	0xbeda8ceb	-0.42685637
235	0xc000007c	-2.0000296
236	0xbcc2e900	-0.023792744
237	0x3fcaea00	1.5852661
238	0xbed62f39	-0.41832903
239	0xbf37c4d9	-0.7178474
240	0x401b239c	2.4240484
241	0x3e9dc75c	0.30816162
242	0xbf1d42b2	-0.61429894
243	0xbfae51d5	-1.3618723
244	0x3e81333b	0.25234398
245	0x3f08f71b	0.53502053
246	0xbe17b259	-0.14814128
247	0xbe548399	-0.20753326
248	0x3fc8272c	1.5636954
249	0x3faba514	1.3409753
250	0xbf97456c	-1.1818061
251	0x3e6915d5	0.22762235
252	0xbe434a18	-0.19071233
253	0x4001028a	2.01578
254	0xbf13d53c	-0.57747245
255	0xbd57dbbe	-0.052699797
